data.pth (torch, 5343 bytes, 6 tensors)

l1.weight f4 [8, 51]
0	0xbe2174a3	-0.1576715
1	0x3eb84962	0.35993487
2	0x3ef602dc	0.48049057
3	0x3eb8b5e6	0.36076277
4	0x3f270407	0.6524052
5	0x3eeea301	0.46608737
6	0x3e95c944	0.29255116
7	0x3e221851	0.15829588
8	0xbefc4444	-0.49270833
9	0x3f1d8415	0.61529666
10	0xbedbc5c2	-0.42924315
11	0xbf7308b7	-0.9493517
12	0xbedbbdba	-0.42918187
13	0x3e39c55b	0.18141691
14	0x3d30bf3b	0.04315112
15	0x3f00f085	0.50367004
16	0x3f537a21	0.8260823
17	0x3f57ce13	0.8429882
18	0xbec6d8ec	-0.38837373
19	0xbe23e473	-0.16005115
20	0x3e17a10e	0.14807531
21	0x3f1303a3	0.57427424
22	0x3ddffdcb	0.10937079
23	0x3e83e7ac	0.2576269
24	0xbedbd5eb	-0.42936644
25	0x3cae221b	0.021256497
26	0xbee14018	-0.43994212
27	0xbe886e6b	-0.26646742
28	0x3e9eac9c	0.30991066
29	0x3f2aebcb	0.6676604
30	0x3ee854a7	0.45377085
31	0x3f2bddff	0.67135614
32	0x3f79c6ff	0.9756927
33	0x3f530836	0.82434404
34	0x3e90c75b	0.28277096
35	0x3ee069da	0.43830758
36	0x3f19b9a4	0.6004889
37	0x3f09380f	0.53601164
38	0x3f00e48b	0.5034873
39	0x3f135d95	0.5756467
40	0x3ce1250d	0.027483488
41	0x3c169e7c	0.009193059
42	0xbeb3a56b	-0.3508714
43	0xbeb72cbe	-0.35776323
44	0x3f2aaa87	0.66666454
45	0x3f0d2337	0.5513186
46	0xbf3aa499	-0.72907406
47	0x3e5372f4	0.2064932
48	0xbeb77b8f	-0.35836455
49	0xbdd48ffb	-0.103790246
50	0xbdfc374b	-0.12315234
51	0xbebab185	-0.36463562
52	0xbe358999	-0.1772827
53	0x3ef85f67	0.48510286
54	0xbe5e5245	-0.21711071
55	0x3f4dfa0f	0.80459684
56	0x3d1dc5b1	0.03851861
57	0x3f10e7f2	0.5660392
58	0x3ee6559b	0.44987187
59	0x3eb915d0	0.36149454
60	0x3f2dfffa	0.67968714
61	0xbf04472f	-0.5167112
62	0xbf64d892	-0.8939296
63	0xbf05fa85	-0.5233539
64	0x3e966894	0.29376662
65	0x3e25ef97	0.16204678
66	0xbf0871cb	-0.53298634
67	0xbdfe78e4	-0.12425402
68	0x3e9d7498	0.30753016
69	0x3ebbbcd4	0.36667502
70	0xbd10ac05	-0.0353203
71	0x3f14b115	0.58082706
72	0xbe8fd0f4	-0.28089106
73	0xbe3355d7	-0.17513214
74	0x3e8f117d	0.2794303
75	0xbf14490e	-0.5792397
76	0x3e50010b	0.20312898
77	0x3ec6b72c	0.38811624
78	0x3f06858e	0.5254754
79	0x3e9aa458	0.3020351
80	0xbef51132	-0.4786468
81	0xbe074d1a	-0.13213006
82	0x3e8931e8	0.26795888
83	0x3e9db8d6	0.3080508
84	0x3f09b2aa	0.53788245
85	0xbe0feeb8	-0.14055908
86	0x3e557c6a	0.20848241
87	0x3f482bef	0.7819204
88	0x3d8e7cfc	0.06957433
89	0xbe8c2283	-0.2737008
90	0x3e52041b	0.20509379
91	0x3e44c605	0.19216163
92	0xbdd55f79	-0.104186006
93	0x3e9239f9	0.28559855
94	0x3ed133c2	0.408598
95	0x3e93d1f0	0.28871107
96	0x3ea1581b	0.31512532
97	0xbea62ad4	-0.3245455
98	0x3f428d8d	0.7599724
99	0x3f01673b	0.5054814
100	0x3ed113a7	0.40835306
101	0x3f22bf21	0.6357289
102	0x3eca8a73	0.39558753
103	0xbedbd1a7	-0.4293339
104	0xbf36ac37	-0.7135653
105	0xbf1f3557	-0.62190765
106	0xbea91fb5	-0.33032003
107	0xbe8ec84b	-0.27887186
108	0x3d81764f	0.06321394
109	0xbe933e9b	-0.28758702
110	0x3cfcd1fd	0.030861849
111	0xbf2a4fda	-0.66528094
112	0x3f30aaec	0.69010806
113	0x3f7c7731	0.9861937
114	0x3f36a544	0.71345925
115	0xbec09238	-0.37611556
116	0x3e0a5dec	0.13512391
117	0x3ef6a843	0.48175249
118	0x3f03faa1	0.51554304
119	0xbf13c06b	-0.5771548
120	0xbea45c08	-0.32101464
121	0xbf3087ad	-0.68957025
122	0x3d866991	0.06563104
123	0xbf561283	-0.83621997
124	0x3d781d07	0.060574558
125	0xbc2ebc08	-0.010664947
126	0x3f17af9b	0.5925233
127	0x3e9884a9	0.29788712
128	0x3e032991	0.12808825
129	0x3ea3d81d	0.3200082
130	0xbe9cf8fa	-0.30658704
131	0x3f6f230a	0.9341284
132	0xbcc406d4	-0.023929037
133	0xbde4bf0f	-0.11169254
134	0x3e19da37	0.15024649
135	0xbe57b195	-0.21063836
136	0xbedbd456	-0.42935437
137	0xbebbcea9	-0.36681107
138	0xbf0dd5b8	-0.55404234
139	0xbdd608d1	-0.104509
140	0x3f1b9ac6	0.6078304
141	0xbc52cee8	-0.012866713
142	0x3e8e65b8	0.2781198
143	0x3f0a06e1	0.53916746
144	0x3eeab532	0.45841366
145	0x3ed19423	0.40933332
146	0xbe9bea46	-0.30452174
147	0xbee64dc9	-0.4498122
148	0xbe75889c	-0.23977894
149	0x3edf8005	0.4365236
150	0x3f66bd46	0.9013256
151	0x3f12a957	0.5728964
152	0x3e4b320d	0.19843312
153	0x3efa6967	0.4890854
154	0x3f3c71b1	0.7361098
155	0x3f36b3e8	0.71368265
156	0x3f30d6b8	0.69077635
157	0x3f398091	0.724618
158	0xbe281062	-0.164125
159	0x3f056f19	0.52122647
160	0x3f18f5d1	0.59750086
161	0x3f1b9730	0.6077757
162	0x3f368c2d	0.7130764
163	0xbebeff04	-0.37303936
164	0xbf55b137	-0.83473533
165	0xbeb62a4b	-0.35579142
166	0x3ed7dffe	0.4216308
167	0x3eb6fec1	0.35741237
168	0xbcceaa8d	-0.02522781
169	0xbdee43a8	-0.11633998
170	0xbeeb8ab7	-0.4600427
171	0x3f4d342f	0.8015775
172	0xbd82cc6c	-0.06386647
173	0x3eaeabec	0.3411554
174	0x3f55a73d	0.8345831
175	0x3ea96f1d	0.33092585
176	0x3db3a27e	0.08771227
177	0xbecced90	-0.40024996
178	0x3f2eb6fe	0.68247974
179	0x3f238f5e	0.63890636
180	0x3ee2d9c5	0.4430677
181	0x3ea2111b	0.31653675
182	0xbe41bc84	-0.18919569
183	0xbe00eade	-0.12589595
184	0xbe82c533	-0.25541076
185	0xbe9b3b2c	-0.30318582
186	0xbe76027c	-0.24024385
187	0x3f03d710	0.51500034
188	0xbe978642	-0.29594618
189	0x3f15ed0c	0.5856483
190	0xbde6d037	-0.112701826
191	0xbde6db93	-0.11272349
192	0xbdbc4581	-0.09192944
193	0x3f03a6f1	0.5142661
194	0x3dcd832f	0.10034787
195	0xbe687bac	-0.22703427
196	0xbd736adf	-0.059428092
197	0xbe608ac8	-0.21927941
198	0xbe20a6e0	-0.15688658
199	0x3dd15ee2	0.102231756
200	0x3f19a490	0.6001673
201	0x3eae3fed	0.34033147
202	0x3f09fc5b	0.5390069
203	0x3e921da6	0.28538245
204	0xbdcb4168	-0.099245846
205	0x3a890580	0.001045391
206	0xbd80b9df	-0.06285452
207	0x3d205268	0.03914109
208	0x3cf9d140	0.030495286
209	0xbd4a9028	-0.049453884
210	0x3da96b6a	0.08272441
211	0xbd8eb4b2	-0.06968059
212	0xbcce2fe8	-0.025169328
213	0x3d3c6c84	0.046001926
214	0x3dcb8488	0.09937388
215	0xbd1a1ee4	-0.037627116
216	0xba028b00	-0.0004979819
217	0xbdf60ed0	-0.12014544
218	0xbd93407f	-0.07190036
219	0xbcbd5248	-0.023110524
220	0x3d01a7e8	0.03165427
221	0x3bf1ae60	0.0073755234
222	0xbda074b8	-0.07834762
223	0x3d361dc8	0.044461995
224	0x3dedbc40	0.116081715
225	0xbd8706a2	-0.06593062
226	0x3e0e03d9	0.13868655
227	0xbe046e02	-0.1293259
228	0xbd85ccfb	-0.065332375
229	0xbc19a8c0	-0.009378612
230	0xbd321b46	-0.04348304
231	0xbdc1573a	-0.09440465
232	0xbd37a222	-0.044832356
233	0xbe0159cf	-0.12631916
234	0x3df79ff2	0.12091054
235	0xbd7b9d34	-0.061429217
236	0xbe00bf88	-0.12573063
237	0x3dd5f95e	0.10447954
238	0x3d238a30	0.039926708
239	0xbd277084	-0.040878788
240	0xbded4cd1	-0.11586917
241	0xbd34a9a0	-0.04410708
242	0xbdf0e411	-0.1176225
243	0x3dc12594	0.094309956
244	0xbc264910	-0.010149255
245	0xbd33bf1e	-0.043883435
246	0x3b11a780	0.0022225082
247	0x3d8ad938	0.067797124
248	0xbd600bf2	-0.054698892
249	0xbca79778	-0.020457968
250	0xbde36d1a	-0.11104794
251	0x3db61a96	0.088917896
252	0x3e053bff	0.13011168
253	0xbdcc609a	-0.09979363
254	0x3b2379df	0.0024944467
255	0x3f18cb41	0.5968514

l1.bias f4 [8]
0	0x3f6437b7	0.89147514
1	0x3f1a4e6f	0.6027593
2	0x3f308461	0.68951994
3	0x3eeb84e0	0.45999813
4	0xbe100550	-0.14064527
5	0x3eb2aef0	0.34899092
6	0x3f402047	0.7504925
7	0x3f76df43	0.9643442

l2.weight f4 [8, 8]
0	0x3fa0fa2b	1.2576345
1	0x3e7ed86a	0.24887243
2	0xbf8d5d65	-1.1044127
3	0x3f3f4d3b	0.7472722
4	0x3e765c24	0.24058586
5	0xbf774a76	-0.96597993
6	0x3f2bb717	0.6707625
7	0x3efa2742	0.48858076
8	0xbf2b091e	-0.66810787
9	0xbe5d31f8	-0.21601093
10	0x3f8b5986	1.0886695
11	0x3eb71907	0.35761282
12	0xbd40fec0	-0.04711795
13	0x3f340d50	0.70332813
14	0x3f4258db	0.7591683
15	0x3ed3aa50	0.41340876
16	0xbe3b96cb	-0.18319242
17	0x3f83481e	1.0256383
18	0x3e79c324	0.24390846
19	0x3f6a5bf1	0.9154654
20	0xbccec722	-0.025241438
21	0xbecd40c1	-0.40088466
22	0xbf8ec715	-1.1154505
23	0x3f6db704	0.92857385
24	0xbe3f8190	-0.18701768
25	0xbf780512	-0.96882737
26	0x3f8e69ee	1.1126077
27	0x3e5496cd	0.20760651
28	0xbe749c1f	-0.2388768
29	0xbed68188	-0.418957
30	0x3f8e9f83	1.1142429
31	0x3f619360	0.881155
32	0xbf5942b8	-0.8486743
33	0x3efcca69	0.49373177
34	0x3e593391	0.21211077
35	0xbf102113	-0.5630047
36	0xbd6c05e0	-0.05762279
37	0x3f373a63	0.71573466
38	0x3f264320	0.64946175
39	0x3fb3d841	1.405037
40	0x3f8e57ad	1.1120507
41	0x3f81c3cb	1.0137876
42	0x3e660a1f	0.22464798
43	0xbe636047	-0.22204696
44	0xbe8286ce	-0.25493473
45	0xbe7b8f83	-0.24566464
46	0xbf7be37a	-0.98393977
47	0x3f6cd298	0.9250884
48	0x3f4317ef	0.76208395
49	0xbcb2a69f	-0.021807967
50	0x3f3db840	0.7410927
51	0xbf1f5403	-0.62237567
52	0xbe0bb6c4	-0.13643938
53	0x3f73c220	0.95218086
54	0x3ea2f204	0.31825268
55	0xbf357024	-0.7087424
56	0x3f091548	0.535481
57	0x3f96fb0c	1.1795363
58	0xbef4b9d6	-0.47798032
59	0x3fc3f8b5	1.5310274
60	0xbddd6f4d	-0.108122446
61	0x3f956498	1.1671324
62	0x3e2e259c	0.17006534
63	0xbf281b6f	-0.6566686

l2.bias f4 [8]
0	0x3f5a6e15	0.8532422
1	0x3eb07a56	0.34468335
2	0xbe175c0f	-0.14781211
3	0x3f033520	0.5125294
4	0x3f034da8	0.5129037
5	0x3f0fe449	0.5620771
6	0x3d48a06d	0.04898112
7	0x3c032eef	0.008006795

l3.weight f4 [11, 8]
0	0x3e777312	0.2416499
1	0x3c569282	0.013096454
2	0xbf4640aa	-0.7744242
3	0x3f0d0c15	0.5509656
4	0xbfb09e61	-1.3798333
5	0xbee7d355	-0.4527842
6	0x3f3e5c39	0.7435947
7	0xbf246567	-0.6421723
8	0x3f30c5ea	0.6905199
9	0xbe0797e0	-0.1324153
10	0xbfaa0986	-1.3284156
11	0x3eaf3930	0.34223318
12	0x3f1e173d	0.6175421
13	0xbeff4cb8	-0.4986322
14	0xbfc8e5ed	-1.5695168
15	0xbf5c0092	-0.8593837
16	0x3edc677c	0.43047702
17	0xbf655aa3	-0.89591426
18	0x3e93077f	0.28716657
19	0xbf5eed10	-0.8708048
20	0xbfbe9119	-1.488803
21	0x3e4f20cd	0.20227356
22	0xbfb597f0	-1.4186993
23	0x3e95dc34	0.29269564
24	0x3e4526cf	0.19253086
25	0xbfaeb59d	-1.3649174
26	0xbfb7b126	-1.4350936
27	0xbf876219	-1.0576812
28	0xbf9bff90	-1.2187366
29	0x3f3aee18	0.7301955
30	0x3f205af4	0.62638783
31	0x3e259f90	0.1617415
32	0xbf13d78e	-0.57750785
33	0x3e366ad5	0.1781419
34	0xbeda742c	-0.42666757
35	0xbf7c6c82	-0.9860307
36	0xbece4e26	-0.40293998
37	0xbf62318e	-0.88356864
38	0xbed6b71d	-0.4193658
39	0x3f27d9a7	0.65566486
40	0x3f4869d0	0.7828646
41	0xbef4d8e4	-0.47821724
42	0xbfa64a0a	-1.2991345
43	0x3ef70bdc	0.48251235
44	0xbfa92533	-1.3214477
45	0xbfb037fb	-1.3767084
46	0xbf80132c	-1.0005851
47	0x3ebaad12	0.36460167
48	0x3f1d8f47	0.6154675
49	0xbfcf5f56	-1.6200969
50	0x3ea4e1fe	0.32203668
51	0xbe857495	-0.26065508
52	0xbd0dbd5b	-0.03460441
53	0x3f552550	0.8326006
54	0xbfae14df	-1.3600119
55	0xbfb9621d	-1.4483067
56	0xbf7fd7bc	-0.9993856
57	0x3ee21fad	0.44164792
58	0xbfa4148a	-1.2818768
59	0x3f50899a	0.81459963
60	0x3f03bcfb	0.51460236
61	0xbfba4c6a	-1.455457
62	0xbeae5aa0	-0.34053516
63	0xbfdd4134	-1.7285523
64	0xbfaf7737	-1.3708256
65	0x3ee66ae1	0.45003417
66	0xbf9879bb	-1.1912149
67	0xbd9fafb8	-0.077971876
68	0x3e966301	0.2937241
69	0xbf8a7747	-1.081765
70	0x3eb8fced	0.36130467
71	0x39c03783	0.00036662453
72	0xbf69a472	-0.9126655
73	0xbf1fba59	-0.6239372
74	0x3f2454b3	0.6419174
75	0xbe833a4a	-0.2563041
76	0x3e3568a2	0.17715696
77	0x3eaad9a8	0.33369184
78	0xbf198db7	-0.59981865
79	0xbcdaa51b	-0.026690057
80	0xbfbd4f63	-1.4789852
81	0x3ea34d89	0.31895092
82	0x3e995478	0.29947257
83	0x3e74c403	0.23902898
84	0x3eaa20bf	0.33228108
85	0x3e413f68	0.18871844
86	0xbfb6c9cc	-1.4280334
87	0xbfc2c9e2	-1.521786

l3.bias f4 [11]
0	0xbdb58407	-0.08863073
1	0x3ecd0f5b	0.40050778
2	0xbe575b05	-0.21030815
3	0x3efdcbb5	0.4956948
4	0x3de850b6	0.113435194
5	0xbe4f8e72	-0.20269182
6	0xbcaa206b	-0.020767411
7	0xbe70938f	-0.23493789
8	0x3e1337a0	0.14376688
9	0xbed1bc97	-0.40964195
10	0x3e1beaa9	0.15226234
